src/GRV/model/COX/COX____1234__train_file=train.csv__val_file=val.csv__test_file=test.csv__play_rate=1__pctr=1__start_time=24.pt (torch, 18069 bytes, 13 tensors)

weight f4 [32, 8]
000000 b9 5f 4b bf b8 94 b2 be 3d f1 65 3e 1b 99 77 3e
       -0.79442936 -0.34879088 0.22455306 0.24179499
000010 75 03 28 bf e8 8a 30 bf 00 a2 1f 3f b8 22 a4 bd
       -0.65630275 -0.68961954 0.6235657 -0.080144346
000020 c9 7b 8c 3e 2a 72 a7 bd 7e 11 ce bd b0 01 9b be
       0.2743819 -0.08176072 -0.1006193 -0.30274725
000030 50 46 9b 3d 02 22 2f be ee d8 ee be c0 e5 29 bf
       0.075817704 -0.17102817 -0.4664988 -0.66366196
000040 3c 0c f3 3e 2e ae b4 be 3c 6f d7 3e 88 88 29 3e
       0.47470272 -0.3528914 0.42077053 0.16555989
000050 b9 6b 16 bf a2 7f 1e 3e 36 ca 2c bf fd 3a 7a be
       -0.5875812 0.15478376 -0.6749605 -0.24436565
000060 fd bf 40 bc 09 e4 45 bf 14 5a d0 3e 62 05 c1 be
       -0.011764524 -0.7730108 0.40693724 -0.3769942
000070 ff 87 dc be 7a 5a 2c bf 3a a9 3c 3e 2a a8 09 bf
       -0.43072507 -0.67325556 0.1842393 -0.53772223
000080 52 4d 4b be 3b 6a 91 3f 8f af 25 bf 28 76 46 be
       -0.19853714 1.1360544 -0.64721006 -0.1938101
000090 d5 c0 1b bf 79 c8 10 bf 8d da 95 bf 7b 44 89 3e
       -0.60841113 -0.56555897 -1.1707321 0.2681006
0000a0 3f e4 31 3f e2 b3 4b be aa 2e bf be e1 7d ec bd
       0.694889 -0.19892839 -0.3734029 -0.11547447
0000b0 b8 b1 32 be 0e c8 15 bd 58 42 a6 bd 1e b1 5b 3e
       -0.17450607 -0.03656774 -0.08118123 0.21454284
0000c0 85 84 1e be c7 c3 8a bf ae fc 57 3e ab cc 93 3c
       -0.1548024 -1.0840997 0.21092483 0.01804193
0000d0 9c b8 e3 3e 82 b6 18 bf 7f 5a 57 3f 18 74 f2 3e
       0.44476783 -0.59653485 0.8412246 0.47354198
0000e0 89 0c bf bf b7 e6 48 3f e3 6f 56 3e b1 41 1c 3f
       -1.49257 0.7847704 0.20941119 0.6103774
0000f0 a9 3a 72 3f 4c de f3 3a 0b b2 0b 3f c8 bb 85 bf
       0.9462076 0.0018605678 0.54568547 -1.0447931
000100 36 ce 3a bf a1 2f 87 be 53 f4 5d be b7 38 d0 be
       -0.729709 -0.26403525 -0.21675234 -0.4066827
000110 66 7c 38 3e 18 08 1a bf 69 e7 87 be 62 f7 26 3f
       0.18016204 -0.601686 -0.2654374 0.65221226
000120 7b af 6a 3e 7a 9f 00 3e 35 0e 08 3e 10 b5 51 bf
       0.22918503 0.12560835 0.1328667 -0.81916904
000130 8c 75 cf 3e 9a 71 23 be 9a 16 50 3f 4e e7 22 3d
       0.4051937 -0.15961304 0.8128449 0.03977137
000140 45 41 65 3e 4b 36 bf be 71 27 f1 3e d0 f0 25 3f
       0.2238818 -0.3734611 0.47100404 0.64820576
000150 1d 6b af 3f 4b 8b cb be 76 5c c4 3e 7e cb b0 be
       1.3704563 -0.3975471 0.38351792 -0.34530252
000160 a2 ae 5c bf 01 7c 4b bf 10 c3 8e 3f 68 51 40 bf
       -0.8620397 -0.7948609 1.1153278 -0.75124216
000170 dd 0c ea 3e f4 f2 82 be da 95 aa 3e fc 99 11 3f
       0.4571294 -0.25575984 0.33317453 0.56875587
000180 8c 9c 9b be 6b 29 78 3f ec 2c 22 bf b3 9c ba be
       -0.30392873 0.969382 -0.63349795 -0.36447677
000190 8d 26 c8 be 0f 0f a1 be fd a3 61 3f d7 b2 94 bf
       -0.39091912 -0.314568 0.8814085 -1.1617078
0001a0 3e fb 86 bf b7 04 9d 3e 26 f3 f7 3e 64 be 38 bf
       -1.0545423 0.3066766 0.48427695 -0.72165513
0001b0 d6 db ca 3e 11 44 56 3e c6 e3 93 3e dc 7f e6 be
       0.39620847 0.20924403 0.28884715 -0.45019424
0001c0 73 70 31 bf 59 21 32 3e da 67 00 bf 41 22 21 3f
       -0.6931221 0.17395534 -0.50158465 0.6294289
0001d0 4e fd 45 bf 6b 9c b3 be 91 88 25 bf c8 35 be ba
       -0.7733964 -0.35080275 -0.6466151 -0.0014511878
0001e0 ec 7e 0a be f4 66 78 3e 5f 79 70 3d 88 38 0e 3d
       -0.1352498 0.24258024 0.0587095 0.03472188
0001f0 25 d9 50 3d cb a1 52 3f e5 35 ec bd 21 ad 1c 3f
       0.050988335 0.82278126 -0.11533717 0.61201674
000200 21 bb aa be 19 ad a8 be a1 54 69 3e c4 f0 98 3e
       -0.33345893 -0.32944563 0.2278619 0.2987119
000210 58 eb cf be a1 64 93 be 1e cd 3b 3f d8 de f8 3e
       -0.4060924 -0.2878771 0.7335986 0.48607516
000220 3a 73 90 3e 95 1c c0 be c1 c7 72 3f 9c 3e c4 be
       0.2821291 -0.37521806 0.9483605 -0.38329017
000230 25 51 bb 3e d0 04 0f 3f 34 1b 9f bd fd 55 ed 3e
       0.36585346 0.5586672 -0.077688605 0.46354666
000240 8d be 20 bf 45 be 9a 3f b7 da e3 3e 86 ae 17 3e
       -0.6279076 1.2089316 0.44502804 0.14812669
000250 1d e1 82 3f 06 ab 33 be a1 f0 93 bf b0 46 0e 3f
       1.0224949 -0.17545709 -1.1557809 0.5557661
000260 9a fe 7d be 97 65 cd 3d ba 7b e2 3d a7 37 79 3e
       -0.24804154 0.10029142 0.11058755 0.24337636
000270 29 09 01 3e 70 27 f8 bd d2 af 22 bf d3 aa 0f 3c
       0.1260115 -0.12116897 -0.6354953 0.008768755
000280 a0 14 68 3d fb 66 07 3f c0 22 f0 be 7a 41 3c bf
       0.056660295 0.5289151 -0.46901512 -0.7353741
000290 46 b6 b2 be 5d d4 be bf 42 06 85 be 07 1b a3 be
       -0.3490469 -1.4908558 -0.25981337 -0.31856558
0002a0 04 66 28 3e 25 94 80 3e 5a 9c 8c 3e ac 3a 3d be
       0.16445166 0.25113025 0.27463037 -0.18479413
0002b0 e3 f1 e2 be df cc 5f bf 90 e4 12 bf ca 96 af 3c
       -0.4432517 -0.87421983 -0.5738001 0.021434207
0002c0 e5 ad bb 3d 2f 26 a6 3d 26 13 09 3f 5d d7 d6 3e
       0.09164027 0.08112752 0.53544843 0.41961184
0002d0 6a 9c 4e be 95 6b d7 bc 71 bd d9 3c 55 1f 03 bf
       -0.20176855 -0.026296416 0.02657959 -0.51219684
0002e0 98 b7 11 3f de 84 fb be 8c d9 d7 be 1c fc c1 be
       0.56920767 -0.49124807 -0.42158163 -0.37887657
0002f0 5a 63 d8 be 8c d5 67 3f 51 19 c0 3d 46 75 45 3f
       -0.422633 0.9056022 0.09379829 0.7713207
000300 d8 cd 36 bd 05 d4 be 3e 20 50 15 3f 5f e2 06 bf
       -0.0446299 0.37271133 0.58325386 -0.52689165
000310 5e 2b fa 3e 41 26 c3 3e 26 ea c0 3c a7 60 3f 3d
       0.48861212 0.38115123 0.02354915 0.046723034
000320 93 88 11 3f 49 be 92 bd e2 ab ea 3e ee bf 2b bf
       0.5684902 -0.071652 0.4583426 -0.67089736
000330 0b 02 89 be 9c 91 26 3f a5 0f 66 be 79 ab 96 be
       -0.2675937 0.6506593 -0.22466905 -0.29427698
000340 8b 71 a0 3e 65 a2 24 bf d9 9f 1d 3e c0 45 a4 be
       0.31336626 -0.64310294 0.15393008 -0.32084465
000350 35 b9 22 3e de 6a 71 bf fc fc 40 3d 03 cb 3d bf
       0.15890963 -0.9430369 0.047116265 -0.74137896
000360 dd 81 42 3f c7 58 83 be e6 5c 7b bf 23 ab 4e bf
       0.75979406 -0.2565367 -0.98188627 -0.80729884
000370 a8 bb f4 be 72 d4 36 3f b3 d7 1b bf 86 82 db be
       -0.4779942 0.71417916 -0.60876006 -0.4287302
000380 cd 90 4e 3f c1 26 1a 3f 2d 96 17 be 7d b9 ad bc
       0.806897 0.60215384 -0.14803381 -0.021206612
000390 4e 16 19 bf 29 9a 57 bf f8 3d 8f 3d b7 38 6e 3f
       -0.5979966 -0.84219605 0.069942415 0.9305529
0003a0 a2 e9 61 3f 3a 93 01 3f 83 22 83 be d2 89 29 bf
       0.8824712 0.50615275 -0.25612268 -0.6622592
0003b0 77 58 bf bd 38 a0 8a bd 6e 3d 37 bf 7b 17 98 bf
       -0.09343045 -0.067688406 -0.7157811 -1.1882166
0003c0 ac 4b 13 be ab fe 16 bf 00 12 4e 3e 80 63 32 3e
       -0.14384335 -0.5898234 0.20124054 0.17420769
0003d0 dc 08 a7 bd 6f e9 28 3e 20 b5 70 bf a7 58 39 3e
       -0.08155987 0.16495298 -0.94026375 0.18100224
0003e0 4d 0e 52 3e 7d 6c 09 3c b8 d0 a1 3e 2c c2 b4 be
       0.20513268 0.008387682 0.31604552 -0.3530439
0003f0 bb 63 a1 3e 71 65 9d be 27 9e 8b bf c0 31 0c be
       0.315214 -0.30741456 -1.0907639 -0.13690853

bias f4 [32]
000000 ef cd 8a 3e 2b 86 8e bd 8e 1e 86 be 2d 85 a0 3e
       0.2711024 -0.06959184 -0.26195186 0.31351605
000010 68 0a 71 3e 2d 6d 44 be 48 b6 eb 3d b7 df 54 3d
       0.23539126 -0.19182272 0.11509377 0.051971164
000020 a6 97 9a 3d b9 56 84 3d e9 f5 eb 3d fc 8b b7 bd
       0.07548456 0.064618535 0.11521513 -0.08962247
000030 bb f4 1c be 6b b9 84 bd 82 fa 61 be 92 6c 9e 3e
       -0.15327732 -0.06480678 -0.22068217 0.30942208
000040 ad da 20 bc 07 8b dc 3e 8f 7f e4 3e 07 51 32 3e
       -0.009817761 0.4307482 0.4462857 0.17413722
000050 11 02 2a be d1 8b fa 3d 3e d5 1d bd 0a ed d8 3e
       -0.16602351 0.12233699 -0.03853344 0.42368346
000060 36 58 61 be a0 bb ae 3e 31 c7 f0 3d ae 85 76 be
       -0.22006306 0.34127522 0.11756743 -0.24074432
000070 9b fd a4 be ff 87 a4 3e ff 91 62 3e c8 90 8f 3d
       -0.32224736 0.32135007 0.22126006 0.07010037

weight f4 [32]
000000 62 06 76 3f 17 74 6f 3f 32 11 41 3f d9 b3 5a 3f
       0.9610349 0.93536514 0.7541686 0.85430676
000010 5b 76 95 3f 19 a4 2f 3f d9 7e 98 3f d7 29 61 3f
       1.1676744 0.6860977 1.1913711 0.8795447
000020 36 6b 5a 3f 29 4c 7a 3f d8 68 5e 3f a0 15 82 3f
       0.8531984 0.9777246 0.8687873 1.016285
000030 4e 91 6a 3f 41 6a 4e 3f 74 5b 8c 3f ce 95 7d 3f
       0.9162797 0.8063088 1.0965409 0.9905671
000040 9e 28 64 3f 67 7b 4e 3f 21 a9 a4 3f 0c 76 9b 3f
       0.89124477 0.8065705 1.2864114 1.21454
000050 6a 46 85 3f da be 63 3f cb 5e 68 3f 32 75 63 3f
       1.0412114 0.8896309 0.9076964 0.888507
000060 b5 47 77 3f 35 75 79 3f dc f1 67 3f 70 d6 7c 3f
       0.9659379 0.9744447 0.90603423 0.98764706
000070 ba 10 6f 3f 8c 09 87 3f 82 15 a9 3f 2c b2 b0 3f
       0.933849 1.0549788 1.3209689 1.3804374

bias f4 [32]
000000 9d 16 1a 3e 0d 2b 57 be 8d b7 34 be 8a 19 99 3e
       0.15047689 -0.21012516 -0.17648144 0.29902297
000010 95 93 dc 3b 7b d1 25 3e 31 ed b8 3e d5 89 c7 3c
       0.0067314603 0.16193192 0.36118463 0.024357716
000020 d0 9b 2a 3d 49 d5 26 3d a3 1f c3 3d e2 eb aa 3d
       0.0416525 0.04073075 0.095275186 0.08345772
000030 84 ea 9e 3c b8 e1 03 bd 99 1d 0a be ac dc 98 bd
       0.019398935 -0.032197684 -0.13487853 -0.07463965
000040 39 e4 84 3c 97 54 46 3e 2b 06 9d be 10 15 6d be
       0.016222106 0.19368206 -0.30668768 -0.23152566
000050 d4 3d d2 3d 18 18 26 be 95 ee e9 3d 51 12 50 bd
       0.10265699 -0.16220129 0.11422459 -0.050798718
000060 e0 02 32 be 25 79 17 bd 03 73 32 3e 91 4c d4 bd
       -0.17383909 -0.036980767 0.17426686 -0.103661664
000070 c8 b9 a5 3d 5b 85 50 be 46 3c d1 bd 0b 81 83 be
       0.080920756 -0.20363371 -0.10216574 -0.2568439

running_mean f4 [32]
000000 3b 31 93 3f 16 5e 66 3e 06 d4 3f 3e ee 0c 8b 3f
       1.1499399 0.22496828 0.18733224 1.0863321
000010 76 fe dc 3e fd 77 35 3e ba c0 b0 3f 03 e0 09 3f
       0.43162888 0.17721553 1.3808815 0.5385744
000020 d3 01 26 3f 83 3e 14 3f ee 1e 83 3f b6 5c 62 3f
       0.64846534 0.57907885 1.0243814 0.88422716
000030 ea 44 13 3f c1 a9 cf 3e dc cf 00 3e a6 c5 b3 3e
       0.5752703 0.405592 0.12579292 0.3511173
000040 7d 24 44 3f a7 6d 12 3f e7 d7 0b 3f 59 38 29 3e
       0.76618177 0.57198566 0.54626316 0.16525401
000050 98 b1 d6 3e ce 22 af 3e be 29 ac 3e b3 ee 16 3f
       0.41932368 0.3420624 0.33625597 0.58957976
000060 75 77 dd 3d 42 96 cd 3e f4 03 5e 3f b0 be 83 3e
       0.108138 0.401537 0.8672478 0.2573142
000070 17 8e bf 3e 7c 02 0c 3f f7 a8 67 3e 64 91 4a 3e
       0.37413093 0.5469129 0.22623049 0.19782025

running_var f4 [32]
000000 c2 b8 4d 3f ef ad 1c 3e 6d 54 3e 3e f0 87 5c 3f
       0.80360043 0.15300725 0.18586893 0.86144924
000010 36 26 86 3f 5a 10 4a 3e ab 16 26 3f 5b 59 34 3f
       1.0480411 0.197328 0.6487834 0.70448846
000020 41 ce e8 3e d5 aa 09 3e 6a 68 59 40 e7 2a 7f 3f
       0.4546986 0.13444073 3.396998 0.9967484
000030 9a 74 41 3f 89 d7 94 3e 53 ac c3 3d 06 ad 0a 3f
       0.75568545 0.2907069 0.095543526 0.5417026
000040 95 7d e6 3e ac 4e db 3e d7 97 bd 3f 47 89 1a 3e
       0.45017686 0.4283346 1.4811963 0.1509143
000050 c6 81 6b 3e 97 a0 16 3e 9f 15 a7 3e 06 d6 c8 3e
       0.22998723 0.14709698 0.32633683 0.39225787
000060 6d fe 19 3e 0a 5e c3 3e eb 03 1b 3f 30 fe bd 3e
       0.15038462 0.38157684 0.60552853 0.37107992
000070 5d 6f c0 3e 6f 12 55 3f 84 cb 5d 3e 7b a5 7d 3e
       0.37584963 0.8323125 0.21659666 0.24770157

weight f4 [32, 32]
000000 55 ac 9b 3e f3 6e 97 3e a1 43 0c 3e 00 af 70 be
       0.30404916 0.29576835 0.13697673 -0.23504257
000010 7d 97 63 be b7 f5 ca bd 9c 97 59 bd cb 43 01 3e
       -0.22225757 -0.09910148 -0.0531231 0.12623517
000020 2d e4 56 3e 13 d3 79 3e 3a ec a5 bd 95 46 8f bc
       0.2098548 0.24396925 -0.08101697 -0.01748971
000030 5d e7 3d 3e 7f a3 e5 3e d6 92 fd 3e 35 d7 ab be
       0.1854529 0.448513 0.4952609 -0.33562627
000040 67 9f cf be c5 95 a4 3d 64 55 cb 3d a0 2b 1d bf
       -0.40551302 0.08036379 0.09928396 -0.6139469
000050 3b 86 27 3e 1f f1 55 bf 98 9b 11 3b 77 9e c3 be
       0.16359799 -0.83571047 0.0022217985 -0.38206837
000060 7d 72 d7 bd 70 a7 12 3e 90 fa a2 3d a3 df 02 3d
       -0.10519884 0.14321685 0.07957947 0.031951558
000070 c5 87 06 bf 9d ed ea bb d4 a9 1f bf 88 ab 4d be
       -0.5255092 -0.007169439 -0.6236851 -0.20084965
000080 ea b6 06 3d b5 15 94 3e 08 84 02 bb d3 a9 76 be
       0.032889284 0.2892281 -0.0019915123 -0.2408822
000090 01 6d 40 3b 68 74 90 be 2e 11 d8 be a5 b8 87 3d
       0.0029361846 -0.2821381 -0.42200607 0.06627015
0000a0 68 99 32 3e 02 a7 9e be f5 9b 0d 3e 3f f6 0b bd
       0.17441332 -0.30986792 0.13829024 -0.034170385
0000b0 cf c8 2e be 98 10 c1 3d 9b fd d1 3e 1d 9b a2 bc
       -0.1706879 0.09426993 0.41013798 -0.019849354
0000c0 c7 eb a8 3e 6e d2 12 3e 21 9e 91 3e 8b c8 e6 3e
       0.32992384 0.14338085 0.28440955 0.45074877
0000d0 81 6f d0 bd 80 9c 91 3d 86 f0 dc bd 39 91 1e 3e
       -0.10177518 0.07109928 -0.10788064 0.15485086
0000e0 77 91 ca 3b 6f 92 51 3d 1e 51 e1 bc 13 28 f3 3d
       0.0061818915 0.05116504 -0.0275045 0.11872878
0000f0 51 06 7c be 69 ab c9 bd e9 dc ca 3e 6d 66 9b 3e
       -0.24611785 -0.09847147 0.39621666 0.30351582
000100 38 9d 22 bd 2d 8b 8f 3c 3e 40 b5 3e 54 83 9d be
       -0.039700717 0.017522419 0.35400575 -0.30764258
000110 0e e5 6b 3e 87 38 ce be 57 08 a9 be 5a e1 8e be
       0.23036596 -0.40277502 -0.33014175 -0.27906305
000120 67 26 b9 be fc 45 00 3e b0 2d 3b 3e 7e a8 86 3c
       -0.3616211 0.12526697 0.18279147 0.016437765
000130 51 63 43 bf 04 9e 80 3e 15 f2 30 3e ff ad c6 3e
       -0.7632342 0.25120556 0.17279847 0.38804623
000140 03 9b 1a bf 82 be a7 be 59 17 1a 3f 6b 4e 72 3e
       -0.6039278 -0.32762533 0.60191876 0.23662727
000150 f8 09 06 bb fa 25 b9 be ef 25 f4 3e 81 80 25 be
       -0.002045272 -0.36161786 0.4768519 -0.16162302
000160 b9 69 b3 bc 6d 4f b0 3e c1 cb f8 3d dc 48 44 3e
       -0.021900998 0.34435597 0.12148238 0.19168419
000170 3c 73 51 be 00 36 9e 3e 4e ae b8 3e 5f 8b 0c 3d
       -0.20454115 0.30900574 0.36070484 0.034312602
000180 95 96 41 be e0 4c 09 3d c3 55 89 3e 9f bc 98 3e
       -0.18905099 0.03352058 0.26823243 0.29831406
000190 3f 23 52 bd 44 8b 49 bd af 0f 9c be 9a 26 38 3c
       -0.051303145 -0.04920508 -0.30480716 0.011239672
0001a0 77 d0 14 3d 98 a4 f1 be 0c 33 7c 3e 91 0c c4 3d
       0.03633162 -0.47195888 0.24628848 0.09572709
0001b0 6d e1 ab bd be 05 74 be c2 b2 cc 3e 9d 91 b0 3e
       -0.08392606 -0.23830315 0.3998013 0.34486094
0001c0 03 0d 18 bd 0b fd ae be 43 24 35 bd 5b 39 86 3e
       -0.037121784 -0.3417743 -0.044224035 0.26215634
0001d0 55 21 01 bf 7e 1a 7a bc 98 8f 65 3e bb ba 9b be
       -0.50441486 -0.015265105 0.22418058 -0.30415902
0001e0 62 91 bd 3e 03 30 29 3e 73 1c d3 3d 18 90 09 3e
       0.3702498 0.16522221 0.10308161 0.13433874
0001f0 3b 9e 18 bf 66 f7 95 3e 67 b4 a7 3d 28 01 16 3e
       -0.5961644 0.29290313 0.08188706 0.14648879
000200 2a f1 15 be 91 bb 24 3e c4 d5 94 3e 6c 2d a6 bd
       -0.14642778 0.16087176 0.2906934 -0.08114132
000210 5a a9 f2 3e 84 12 8d 3d e4 ed 06 3e 30 be 84 be
       0.4739483 0.06888297 0.13176686 -0.25926352
000220 27 5b 24 3f cf 08 a9 be 45 df 36 3d c7 be a8 be
       0.6420159 -0.33014533 0.04464652 -0.32958052
000230 f0 80 a2 3e 5c a9 5a 3d 62 9e 0b 3e a0 e9 9b 3e
       0.31738997 0.05338417 0.13634637 0.3045168
000240 55 97 2b 3e d4 44 86 be 84 2f e1 3e f1 4a 96 3e
       0.16756947 -0.26224387 0.43981564 0.2935405
000250 26 12 b9 be d4 cd e2 3e 51 bf 29 be 50 28 a0 be
       -0.3614666 0.4429766 -0.16576888 -0.31280756
000260 d9 9f 37 bc ba d5 22 3e a2 23 04 be 26 7e ae 3c
       -0.011207544 0.15901843 -0.12904218 0.021300387
000270 06 fd 5f be 15 23 b4 3e 45 ce dc 3e 88 0f f8 3e
       -0.21873865 0.35183015 0.4312612 0.4844935
000280 fe fd 9d bb c1 f4 43 bc c7 e9 ea 3e 10 d1 93 3e
       -0.004821538 -0.011960209 0.45881483 0.2887044
000290 8e d6 c4 be fd d9 36 bc ce 21 0e 3d 32 62 b2 3a
       -0.38444942 -0.011160371 0.034700207 0.0013609587
0002a0 22 ca cb 3e 77 9c 20 3d 2a f4 c8 3e 13 93 83 be
       0.39802653 0.039211717 0.39248782 -0.25698146
0002b0 c1 18 8a 3d 46 f4 86 bd f1 05 32 3d 59 82 e4 bd
       0.06743003 -0.0658956 0.043462697 -0.11157674
0002c0 8f 51 3e bd 6f 32 70 be 74 8a e4 be a1 fc 30 be
       -0.0464645 -0.23456739 -0.4463688 -0.1728387
0002d0 97 f5 f5 be bf 9d 32 be 5a aa f8 be 39 a0 36 3e
       -0.48038933 -0.17442988 -0.48567468 0.17834558
0002e0 ca c7 13 bd 5c 43 a7 bd d0 ab f1 bd 9a f8 19 be
       -0.036079206 -0.08167145 -0.11800349 -0.1503624
0002f0 be da 9e 3e 40 b9 3d be f0 cd e3 3c ec 5f 97 3e
       0.31026262 -0.18527699 0.02780816 0.2956537
000300 52 e0 3f be 48 13 1b bd 5e a4 aa 3d 6f 9b 24 bf
       -0.18737915 -0.037860185 0.08332132 -0.6429967
000310 4a cd d3 bd d3 0e 4a bd 7d 42 ed be fd 0d cc bd
       -0.1034189 -0.049330544 -0.4633979 -0.099636056
000320 26 c9 c4 be 06 b4 a8 bd a5 a9 b1 be f9 f9 0e 3e
       -0.38434714 -0.08237462 -0.3469974 0.13962545
000330 f9 c2 a2 bd ce e1 9d bd 91 a0 7d 3e df 48 ac be
       -0.07947344 -0.077090845 0.24768282 -0.33649346
000340 bd e0 24 3e 1c ed 91 be 93 75 8f 3d 0b 45 b1 3e
       0.16101356 -0.28501213 0.070048474 0.34622988
000350 fe d4 e6 bd c1 73 3f 3e c7 ac 86 bd 63 e5 50 3e
       -0.11271094 0.186965 -0.065759234 0.20400004
000360 c3 71 1c 3e ce ea 68 bc ec 66 00 bf 60 f3 d8 3e
       0.15277772 -0.014216138 -0.50157046 0.4237318
000370 06 aa 95 be 20 64 4d 3e 02 21 d2 3e 18 9a 8c 3e
       -0.2923128 0.20057726 0.41040808 0.27461314
000380 28 7d 55 be e3 8d ed 3d 8e 57 a1 3e a8 ed 31 3e
       -0.20848525 0.11599328 0.3151211 0.17375815
000390 dc f5 9a be 56 b9 9b be b1 ad ed be 2e 61 95 3d
       -0.302657 -0.30414838 -0.4642158 0.07293926
0003a0 df 6f b6 be 66 b5 52 3e ec ab 1d 3e 42 e8 e6 3e
       -0.35632226 0.2057701 0.15397614 0.45099074
0003b0 9e 4e 0a 3f 42 68 50 3e 19 02 91 3e a5 90 a9 bd
       0.5402621 0.20352271 0.28321913 -0.08279542
0003c0 2e 82 53 3b 43 be 50 3e 52 b3 0b 3f a9 cf 0b bf
       0.0032273638 0.20385079 0.54570496 -0.5461374
0003d0 a7 97 3e bd 10 9b 71 3e 0c fd db bd 22 b4 40 be
       -0.046531346 0.23594308 -0.10741624 -0.18818715
0003e0 b0 c9 12 bb c7 d0 03 3f bd 3a 89 3e 36 f6 30 bd
       -0.0022398047 0.51490444 0.26802626 -0.043203555
0003f0 70 51 2c 3f 33 df 1e 3e 28 7b 4d be f2 a0 c8 bd
       0.67311764 0.15514831 -0.20066512 -0.09796323

bias f4 [32]
000000 a9 98 63 3e e7 f1 4b be 56 99 c3 bd ef 5f da 3c
       0.22226204 -0.19916497 -0.09550731 0.026657073
000010 e3 e9 81 be a3 c5 93 3e 8c 66 a0 be b7 f0 67 3d
       -0.25373754 0.28861722 -0.31328237 0.056626048
000020 7f 70 0a 3d b5 17 f7 bd de 1b b5 be 17 c1 5b be
       0.03379869 -0.12065069 -0.35372823 -0.21460377
000030 24 59 2c 3e 93 a9 38 3c f8 e2 33 be 48 72 84 be
       0.1683088 0.011270898 -0.1756705 -0.2586844
000040 27 11 bc 3d 2f ee 80 3e 2f 59 7f 3e 47 96 73 3e
       0.09182959 0.2518172 0.24936365 0.23787795
000050 2f 1e 8c 3e 63 50 46 3d 76 b7 97 bc f7 1e 4c be
       0.27366778 0.048416506 -0.018520098 -0.19933687
000060 00 90 99 be 4f fa 80 3d 4e 9e 17 3e 3c 77 72 be
       -0.29992676 0.062977426 0.14806482 -0.23678297
000070 09 8c c6 3d 80 ab a5 bd 7c 24 dc bd c0 6c d7 be
       0.09694678 -0.08089352 -0.10749146 -0.42075157

weight f4 [32]
000000 7f 36 53 3f 11 8d a6 3f ad 8a 68 3f f9 b2 58 3f
       0.8250503 1.30118 0.908366 0.8464809
000010 7b dc 9e 3f 25 38 47 3f c3 41 9c 3f b5 81 52 3f
       1.2411035 0.77820045 1.2207569 0.8222917
000020 a1 36 4f 3f a4 9e ab 3f e5 2e 45 3f 0f 81 55 3f
       0.8094273 1.3407788 0.7702468 0.8340005
000030 97 16 36 3f 30 4f 04 3f cc 64 6e 3f d6 96 91 3f
       0.7112822 0.5168333 0.93122554 1.1374156
000040 6e 49 47 3f b1 dc 55 3f 79 f8 51 3f 0d 6d 4f 3f
       0.7784642 0.83539873 0.82019764 0.81025773
000050 2f 85 41 3f ea 49 4c 3f 47 fe 5c 3f 6a 49 4c 3f
       0.7559385 0.79800284 0.86325496 0.7979952
000060 47 e6 76 3f fa e4 92 3f b4 cc 4e 3f 75 4a a0 3f
       0.96445125 1.1476128 0.807811 1.2522722
000070 45 81 44 3f a9 6d 19 3f 4e 22 7a 3f e8 d0 58 3f
       0.7675975 0.59932953 0.97708595 0.84693766

bias f4 [32]
000000 72 a4 34 be 6a d5 db 3e 33 fc 48 3e da ef b0 3d
       -0.17640856 0.4293626 0.19627456 0.08639498
000010 e1 c1 f4 3e df 18 4a 3e 81 98 c2 3e 51 7f fb 3d
       0.47804168 0.1973605 0.38006976 0.12280143
000020 c3 d8 e7 bd d4 cf 85 3e 9a 22 ed 3e 58 eb 5a 3e
       -0.11320641 0.26135123 0.4631546 0.21378839
000030 11 26 85 3d f4 28 00 3d 57 5b 8b bd 9e c9 0b 3e
       0.06501401 0.031289056 -0.06804531 0.1365113
000040 f2 0b 4f 3d da 52 65 3d 6d 75 bd 3d b5 0e 80 bd
       0.0505485 0.055987217 0.09250913 -0.06252805
000050 01 53 6d 3d de a8 c7 3d 6d 32 09 3c 34 7d 15 3e
       0.057940487 0.09749006 0.008373839 0.14598542
000060 4c df e7 3e 87 59 18 3f 30 6e 02 bd b9 4a cb 3e
       0.4528755 0.5951161 -0.031843364 0.39705446
000070 2e 7d 68 3d 31 ae 25 be 2d 1d 4f 3e 32 be 4d 3e
       0.056760006 -0.1617973 0.20225973 0.20092085

running_mean f4 [32]
000000 4d 36 a3 3f 2c 6c 5b 3f f2 86 83 3f 7d 02 5a 3f
       1.2750946 0.8571193 1.0275557 0.85160047
000010 37 ef 8c 3f d9 aa 4c 3f d4 31 44 3f 8c 35 26 3f
       1.1010503 0.7994819 0.7663853 0.64925456
000020 cd bd a4 3f de 42 90 3f 86 e5 28 3f d8 cf 29 3f
       1.2870423 1.1270406 0.65975225 0.6633277
000030 94 9d bb 3f 93 30 99 3f 10 89 8b 3f 84 19 51 3f
       1.4657464 1.1967949 1.0901203 0.8167956
000040 a6 34 d0 3f 7a e4 3d 3f 0f 24 b2 3f 97 58 a7 3f
       1.6266067 0.7417675 1.3917254 1.307391
000050 62 61 ad 3f 60 bf 96 3f 34 6b 7a 3f 4b 86 02 3f
       1.3545344 1.1777153 0.9781983 0.50986165
000060 63 79 85 3f f7 1a 88 3f 46 55 88 3f 41 49 6c 3f
       1.0427669 1.0633229 1.0651023 0.92299277
000070 f4 58 ac 3f 20 88 2a 3f 7d 6f 48 3f d9 cb 4e 3f
       1.3464646 0.6661396 0.7829512 0.80779797

running_var f4 [32]
000000 84 9f 08 40 05 da 8e 40 b5 69 ba 40 8f 4d 58 40
       2.134736 4.4641137 5.8254037 3.3797338
000010 5d 79 e9 40 e0 e8 32 3f c8 10 68 40 4e 18 95 3f
       7.296065 0.6988659 3.6260242 1.1648042
000020 e5 52 ee 3f f3 a4 00 41 b3 79 13 40 5c a8 2f 40
       1.8619047 8.040271 2.304303 2.7446508
000030 14 dd c0 3f eb f8 fd 3f 9b 39 f1 40 a2 22 8b 40
       1.5067468 1.9841589 7.538282 4.3479776
000040 e2 d0 d8 3f 4e 7e 50 3f f1 dc b9 3f 4f 84 09 40
       1.6938746 0.81442726 1.4520551 2.1487005
000050 4a 45 f1 3f e4 1f eb 3f 83 98 aa 3f c3 81 a1 3f
       1.884927 1.8369107 1.3327793 1.2617725
000060 0f 37 d7 40 17 57 dc 40 65 ec 50 3f fe a0 b3 40
       6.725471 6.885631 0.8161071 5.6134024
000070 7f 8c 0e 40 7e ce 1b 40 af 12 72 40 16 9d 75 40
       2.2273252 2.4344783 3.7823904 3.8377128

weight f4 [1, 32]
000000 18 a4 01 bc 2a bc d2 be c6 62 cc bd eb de ee bc
       -0.007912658 -0.41159183 -0.09979777 -0.02915903
000010 1e 6d dc be 84 34 45 3c d3 68 c9 be a0 6d 3c 3d
       -0.43052 0.0120364465 -0.39337787 0.046002984
000020 26 a8 70 3c cd 83 30 be 60 18 2b bd d9 ef 8a bc
       0.014688527 -0.17237778 -0.041771293 -0.016960071
000030 28 f3 71 3c 0b 3b 7b 3c 99 a0 a0 bd a7 fc 60 be
       0.014767446 0.015333901 -0.078431316 -0.21971379
000040 76 37 aa ba 9a 82 02 3c 96 b4 a3 3c 04 e3 41 3c
       -0.0012986499 0.007965708 0.019983571 0.01183391
000050 2a 21 42 bc 6d 44 e8 bc 0b a4 38 bd 8e 27 65 3c
       -0.011848727 -0.02835294 -0.04507832 0.013986481
000060 5c 12 f1 bd 9f bf b4 be 3f 59 c5 bc c9 5a ac be
       -0.1177108 -0.35302445 -0.024090407 -0.33663014
000070 05 08 2d 3d 69 62 06 3c 6c c5 c8 bd 06 66 2a bd
       0.042243976 0.008202174 -0.0980328 -0.041601203
